src/data.pth (torch, 3327 bytes, 6 tensors)

l1.weight f4 [8, 9]
000000 b8 95 c7 3e 10 1b 59 be 39 ad e8 be 2b eb fe be
       0.38981414 -0.2120173 -0.45444658 -0.49788794
000010 ff 49 34 3f 80 6f 13 3f 02 c9 26 3f fc 95 a6 be
       0.7042541 0.5759201 0.65150464 -0.32536304
000020 cb 9d 1f 3f 85 eb e7 3d b8 5a 2a 3f 04 48 a3 be
       0.6235015 0.11324219 0.66544676 -0.3189088
000030 32 56 a3 be 35 4a 9a 3e a3 2f d8 3c f9 3d 44 3f
       -0.319017 0.3013474 0.026389902 0.7665706
000040 7d 21 c5 be 32 fb d4 3e b8 5c f3 3e 6b ec 9a be
       -0.38502112 0.41597897 0.47531676 -0.30258498
000050 8c da 2e be eb a2 00 3f 15 24 61 be 86 c1 c9 3d
       -0.17075557 0.50248593 -0.2198642 0.09851365
000060 48 da 67 3f d5 96 14 bf 8c 5a 6c bd 7b 4f 06 3f
       0.90567446 -0.5804265 -0.05770354 0.5246503
000070 b8 12 8f 3f 2a 46 07 bf f2 a8 4b 3f 35 98 86 be
       1.1177588 -0.52841437 0.79554665 -0.26288
000080 8e d6 04 bf a2 a5 34 bf 03 fe 03 3f 0d 92 35 bf
       -0.51889884 -0.70565236 0.51559466 -0.7092598
000090 f5 4d c5 3d 9a 2e 7f 3f 57 78 3e 3f 31 54 a6 be
       0.0963401 0.99680483 0.74402374 -0.32486108
0000a0 6f 7d 3b 3f 99 8c 3d 3f 26 35 3f be 24 6c b8 bd
       0.7323827 0.7404266 -0.18672618 -0.09005001
0000b0 73 ea 51 3f 50 f6 36 3e 26 46 5a bf 68 5a 21 3f
       0.81998366 0.17867398 -0.8526329 0.63028574
0000c0 2b 2d 2d bf 76 1a 37 3f ca 93 3a 3e 0e d1 7e be
       -0.67647046 0.7152475 0.1822044 -0.24884436
0000d0 3b c7 18 3e d0 75 39 3f 46 20 3d 3e 68 2f 75 3d
       0.1491975 0.7244539 0.18469343 0.059859663
0000e0 4c dd c8 bd af 18 83 3e e6 d7 d9 bd 38 f0 45 be
       -0.09807834 0.2560477 -0.106368825 -0.19329917
0000f0 c0 fe ca 3b c4 64 8f be a0 fa f6 bd 8d 7b 4e 3f
       0.0061949193 -0.28006566 -0.12059522 0.80657274
000100 5c d2 dd be fe eb 1d 3f ab 7f 48 3f b3 03 99 be
       -0.43324554 0.6168822 0.78319806 -0.29885635
000110 81 24 dc be 34 2c b8 be 5d cb 46 3e db d9 1d be
       -0.429966 -0.35971224 0.19413514 -0.15415137

l1.bias f4 [8]
000000 d9 cd dd 3e 6a 3f 17 3f a1 4e 8d 3e fb c1 e6 3e
       0.43321112 0.5908114 0.27599052 0.4506987
000010 77 67 ab 3e 13 5c 06 3f 06 c2 4f be 80 72 43 3f
       0.33477375 0.52484244 -0.20288858 0.7634659

l2.weight f4 [8, 8]
000000 70 56 db be 49 ee 11 3f 51 3e 25 3f ba 05 e1 3e
       -0.42839384 0.5700422 0.6454821 0.43949682
000010 78 50 a0 be 2a be e4 3c 1d 56 63 be 35 f0 61 3f
       -0.31311393 0.027922709 -0.22200818 0.8825715
000020 ae d8 32 3f 9e fe 79 3f 84 bd 50 3f 94 a5 1b bf
       0.69861877 0.9765414 0.8153918 -0.6079953
000030 24 03 dd 3d d7 0f c5 bd e0 7e 4b 3c f5 23 0e 3e
       0.10791615 -0.09622162 0.012420386 0.13880904
000040 ac 78 51 be f5 86 53 3e 20 8b 05 bf 53 bb 4f 3f
       -0.20456189 0.20656951 -0.5216541 0.8114521
000050 c2 f8 ec 3e 48 e3 33 bf 40 c3 d5 3b a1 29 48 3e
       0.46283537 -0.7026868 0.0065235198 0.1954713
000060 1e 98 30 3f c9 ca 8a 3f 8e 50 3a 3f 3e ae 60 3e
       0.6898211 1.0843135 0.72779167 0.21941468
000070 be 01 e9 3e 54 79 cc 3e 5a 22 4b 3e a7 c1 1d bf
       0.45509142 0.39936316 0.19837323 -0.61623615
000080 79 78 64 3e 8c 73 8e be 19 7b 35 bf 19 d0 a2 be
       0.22311582 -0.2782253 -0.7089096 -0.3179939
000090 6c 2d 4a 3f 80 75 63 3f 80 ea bc 3c 7c 3f 5f 3e
       0.7897556 0.88851166 0.023061037 0.21801561
0000a0 bf f0 c1 be 65 1a 4d bf 8c dd 39 3f 69 75 e8 3e
       -0.37878987 -0.801184 0.7260368 0.45402077
0000b0 0c ac 29 bf 41 1a 1d bf b9 de 4f be c2 9f 14 3f
       -0.6627815 -0.61368185 -0.20299806 0.5805627
0000c0 25 70 22 3e 83 c0 35 bf 26 b6 a7 be 03 b1 39 be
       0.15863092 -0.70996875 -0.32756156 -0.18133931
0000d0 7b 48 e2 3d 11 7f 8f 3f a0 c2 15 3d d5 cb 70 3f
       0.11048981 1.1210653 0.036562562 0.94061023
0000e0 1b 74 de bd ea b9 2d bf 65 91 c0 3e 09 f9 e5 3e
       -0.10861989 -0.6786181 0.37610927 0.4491656
0000f0 bd d5 58 bf ef 37 3e bf ee 60 93 be 97 4d 0b 3f
       -0.8470114 -0.743041 -0.2878489 0.5441527

l2.bias f4 [8]
000000 91 94 cd 3e 62 12 92 3e 86 f7 1c 3f 01 4c 0f 3e
       0.4015241 0.2852965 0.6131519 0.13993837
000010 24 a6 f5 3e b6 c2 31 be 8a b0 8b be 84 65 98 3e
       0.47978318 -0.17359433 -0.27283126 0.2976495

l3.weight f4 [5, 8]
000000 e3 3b 8f 3e 0b 03 2d bf ff 71 10 bc db a7 1e bf
       0.27975377 -0.6758277 -0.008816241 -0.6197488
000010 99 f2 3b bf be 09 59 3f e2 0f 04 3f 30 ad 61 3f
       -0.7341705 0.8478049 0.51586735 0.8815489
000020 1a 11 e3 3e 74 50 ed be c9 78 63 3f ce 29 16 39
       0.44348985 -0.46350443 0.8885618 0.00014320688
000030 e3 55 80 bd 35 ff 64 bf c2 4e 0e bf 4f 05 77 be
       -0.062663816 -0.89451915 -0.55588925 -0.24123119
000040 44 37 48 bf 3f 04 ba bc f5 29 00 bf d0 af 16 3f
       -0.7820933 -0.022707103 -0.5006402 0.5886202
000050 93 69 1d 3f 7b ee 8a bd 64 6d 07 3f de 2e 66 be
       0.6148922 -0.06783768 0.5290129 -0.22478816
000060 37 63 14 3f 56 b8 21 bf c9 d3 e4 be db 6c 7f bf
       0.5796389 -0.631719 -0.4469283 -0.99775475
000070 30 87 65 3f e1 23 4b bf d5 ad 40 3f ab af 44 bf
       0.89659405 -0.7935162 0.75265247 -0.7683055
000080 14 d9 e3 3e 8d b5 08 3f 52 14 66 bf 69 6f 1a 3f
       0.44501555 0.53402025 -0.89874756 0.6032625
000090 bc 2d f1 be f6 f4 e8 be a0 a3 b2 be 37 e2 15 bf
       -0.47105205 -0.4549939 -0.3489046 -0.585483

l3.bias f4 [5]
000000 e1 fd a1 be c5 bd dc 3e 21 60 d1 bd 6f 07 04 3f
       -0.31639007 0.43113533 -0.10223413 0.5157384
000010 c3 b8 82 3d
       0.06382897
